param.pth (torch, 402109 bytes, 6 tensors)

conv1.weight f4 [32, 1, 9, 9]
0	0xbd0030a8	-0.031296402
1	0xbdc90a28	-0.0981639
2	0xbc98e8d0	-0.018665701
3	0xbbabd671	-0.0052440693
4	0x3e3ae53b	0.18251507
5	0xbc4dabc8	-0.012553163
6	0x3c064339	0.008194738
7	0xbbc9b691	-0.006155797
8	0x3dbb36ec	0.09141335
9	0xbe4bcccf	-0.19902347
10	0xbe339baa	-0.1753985
11	0xbe29512e	-0.16534874
12	0xbcb29d19	-0.021803426
13	0x3db9fd1d	0.09081481
14	0x3d8b209b	0.067933284
15	0x3df20683	0.11817648
16	0x3dd65cd0	0.10466921
17	0x3e524c30	0.20536876
18	0xbe0a454f	-0.13503002
19	0xbe6bfc66	-0.23045501
20	0xbe398636	-0.18117604
21	0xbe3a025a	-0.1816496
22	0xbe61b74f	-0.22042583
23	0xbe86357e	-0.26212686
24	0xbe25fb81	-0.16209222
25	0xbe0d0a3f	-0.1377344
26	0xbe0ba72e	-0.13637993
27	0xbd297286	-0.041368984
28	0x3c6ef7f8	0.014585488
29	0xbde24224	-0.110477716
30	0xbea9ea91	-0.33186772
31	0xbe540576	-0.20705208
32	0xbe4ec9b5	-0.20194133
33	0xbe2cb8e1	-0.168674
34	0xbe1126a2	-0.14174893
35	0xbd701987	-0.058618095
36	0xbe1f736b	-0.15571372
37	0x3dd790de	0.10525678
38	0x3eb2197c	0.34785068
39	0x3ed399f5	0.41328397
40	0x3ed5b56b	0.41739973
41	0x3eaafd91	0.3339658
42	0x3eab46ab	0.33452353
43	0x3ebbcbf3	0.36679038
44	0x3e3a63b4	0.18202096
45	0x3deef918	0.116686046
46	0x3e378e57	0.17925392
47	0x3e3bb079	0.18329038
48	0x3e6eb033	0.23309402
49	0x3eac69d0	0.3367448
50	0x3e525f0c	0.2054407
51	0x3d51ce1d	0.051221956
52	0xbc86171c	-0.016368441
53	0x3d018bc1	0.03162742
54	0xbdb338ef	-0.087510936
55	0xbe7b387e	-0.24533269
56	0xbe7b13ad	-0.24519224
57	0xbea6bc8c	-0.32565725
58	0xbe7d8b82	-0.2476025
59	0xbe403a7b	-0.18772309
60	0xbe318bda	-0.17338505
61	0xbd4a681b	-0.04941569
62	0xbe2035ab	-0.15645473
63	0xbe22986b	-0.15878455
64	0xbe94ecf9	-0.29087046
65	0xbe9748dc	-0.29547775
66	0xbe90843c	-0.28225887
67	0xbe687614	-0.22701293
68	0xbdc5b063	-0.09652784
69	0xbbde8e8f	-0.0067918967
70	0x3cf75894	0.030193605
71	0xbd4dd550	-0.05025226
72	0x3d96af07	0.073576026
73	0xbe06785a	-0.13131848
74	0xbe213f97	-0.15746914
75	0xbd23c6a4	-0.03998436
76	0x3e01e768	0.1268593
77	0xbc974f1f	-0.018470345
78	0x3c0ee934	0.008722592
79	0xbda3908c	-0.079865545
80	0xbd052537	-0.032506194
81	0x3b22a64a	0.0024818354
82	0xbcdbbaee	-0.026822533
83	0xbde9c33a	-0.1141419
84	0xbe4ead81	-0.20183374
85	0xbe16eb33	-0.14738159
86	0xbe0a6c0d	-0.1351778
87	0xbdccc701	-0.099988945
88	0xbdba24cf	-0.09089052
89	0xbdb8145c	-0.08988258
90	0x3c85a0b1	0.016311975
91	0xbe224102	-0.15845111
92	0xbdd5ff47	-0.10449081
93	0xbe400e2c	-0.18755406
94	0xbe355183	-0.17706876
95	0xbe815e8b	-0.25267443
96	0xbd5daf13	-0.054122042
97	0xbd94f6a9	-0.07273609
98	0xbe39054f	-0.18068431
99	0xbe0ad25a	-0.13556805
100	0xbd6c01f1	-0.05761904
101	0xbe2f0d6d	-0.17094965
102	0xbe8af6d5	-0.27141443
103	0xbe3f3a13	-0.18674497
104	0xbe836bf5	-0.25668302
105	0xbdfb16ef	-0.122602336
106	0xbd932880	-0.07185459
107	0xbea1ae61	-0.31578353
108	0xbe297b81	-0.16551019
109	0xbde7ce33	-0.11318626
110	0xbe24d7b0	-0.16097903
111	0xbe8bcafc	-0.27303302
112	0xbe94c230	-0.29054403
113	0xbe961965	-0.2931625
114	0xbd9cfe24	-0.07665661
115	0xbe2cf527	-0.16890393
116	0xbe93345a	-0.2875088
117	0xbdd1422c	-0.102176994
118	0xbdf90b60	-0.12160373
119	0xbe5e3791	-0.21700884
120	0xbe4a6174	-0.19763738
121	0xbe46e8c1	-0.19424726
122	0xbe54bf33	-0.20776062
123	0xbdcffb55	-0.1015536
124	0xbdd40007	-0.10351568
125	0xbda00506	-0.07813458
126	0xbce935ed	-0.028468097
127	0x3d46a0a4	0.048493043
128	0xbe376728	-0.17910445
129	0xbe5feea6	-0.21868381
130	0xbe81ae4e	-0.25328296
131	0xbe71f63d	-0.23629089
132	0xbdc216f2	-0.09477033
133	0x3d738eda	0.059462406
134	0x3da981c1	0.08276702
135	0x3dcf0680	0.10108662
136	0x3e371c9e	0.1788201
137	0xbc961752	-0.018321667
138	0xbe26509d	-0.16241689
139	0xbe2831e9	-0.16425289
140	0xbd409b68	-0.047023207
141	0x3e891619	0.26774672
142	0x3ded445a	0.11585303
143	0x3e482c6a	0.19548193
144	0x3db94d7e	0.090479836
145	0x3e211e61	0.15734245
146	0x3ec8d213	0.39222774
147	0x3eb22f2e	0.3480162
148	0x3e81b6b0	0.25334692
149	0x3eaea69e	0.34111494
150	0x3e8206aa	0.2539571
151	0x3e8dba7c	0.2768134
152	0x3e98d594	0.29850447
153	0xbdb6c144	-0.08923581
154	0xbbf410a2	-0.007448272
155	0xbe0a71bf	-0.13519953
156	0xbe652cc5	-0.2238036
157	0xbcd50880	-0.02600503
158	0xbd78c46e	-0.060734205
159	0x3e05185d	0.12997575
160	0x3e8f65ef	0.28007457
161	0xbd5071f3	-0.05088992
162	0xbd1024e5	-0.035191435
163	0x3d1db7ac	0.03850524
164	0xbe5918e8	-0.21200907
165	0xbdc6f38c	-0.09714422
166	0x3c416160	0.011803001
167	0xbe30c441	-0.17262365
168	0xbd94512f	-0.07242047
169	0xbda30cfe	-0.079614624
170	0x3c93b588	0.018030897
171	0xbc21d805	-0.009878163
172	0x3c844bc3	0.016149407
173	0xbdadd543	-0.08487942
174	0xbdcea2b4	-0.10089627
175	0xbe37a10f	-0.17932533
176	0xbe4ce4fa	-0.20009223
177	0xbe27236e	-0.16322109
178	0xbe1a695a	-0.15079251
179	0x3dd9119f	0.10599064
180	0xbcb76975	-0.022389153
181	0xbe1f7dfe	-0.15575406
182	0x3d84fb3e	0.06493233
183	0xbdbc0210	-0.09180081
184	0xbe81f35f	-0.2538099
185	0xbe441299	-0.1914772
186	0xbe110dc2	-0.14165404
187	0xbdcd1b7f	-0.1001501
188	0x3d7521bb	0.05984662
189	0xbb2ed0d3	-0.0026674762
190	0xbe0d5442	-0.13801673
191	0x3ca9b37d	0.02071547
192	0xbe28ebfe	-0.16496274
193	0xbe7b2199	-0.24524535
194	0xbe5d10b5	-0.21588404
195	0xbe52088a	-0.2051107
196	0xbd1536aa	-0.036429085
197	0x3da2b322	0.07944323
198	0xbd6c6766	-0.057715796
199	0xbe0b1a0b	-0.13584153
200	0x3e1cfc7f	0.15330695
201	0xbe2ff819	-0.17184485
202	0xbe52a21b	-0.20569651
203	0xbe2bd684	-0.1678105
204	0xbe267fa8	-0.16259634
205	0xbd9d1539	-0.076700635
206	0x3dfb3f9b	0.12267991
207	0x3e3c197d	0.18369098
208	0xbe35da69	-0.17759098
209	0x3e88eef8	0.2674482
210	0xbe4b7eda	-0.19872609
211	0xbe17b215	-0.14814027
212	0xbe3345d5	-0.17507108
213	0xbe2d9ccb	-0.16954343
214	0xbd99e275	-0.075138964
215	0x3e0b81d0	0.13623738
216	0x3eb5c74c	0.35503614
217	0x3e97ebea	0.29672176
218	0x3ef512b1	0.47865823
219	0xbe2eec76	-0.1708239
220	0xbd355dae	-0.044278793
221	0xbe27e275	-0.1639498
222	0xbdc34da8	-0.09536296
223	0xbc9358cc	-0.017986678
224	0x3d784908	0.060616523
225	0x3e9605c5	0.29301277
226	0x3dbd049b	0.09229394
227	0x3f10f7af	0.56627935
228	0x3e2f7380	0.17133904
229	0x3e5683d1	0.20948721
230	0xbe0338aa	-0.12814584
231	0xbe771e6e	-0.24132702
232	0xbe03382a	-0.12814394
233	0x3d69aaab	0.057047527
234	0x3e474de9	0.19463314
235	0x3e216ee7	0.15764962
236	0x3de69999	0.11259765
237	0x3eb3c102	0.3510819
238	0x3e10259e	0.1407685
239	0x3d59770d	0.05309205
240	0x3de22b27	0.11043387
241	0xbb206084	-0.002447159
242	0xbc07143e	-0.008244572
243	0x3ce30a73	0.027714944
244	0xbd660de5	-0.056165595
245	0xbd8d2110	-0.06891072
246	0xbdcc74d1	-0.099832185
247	0x3cc06352	0.02348486
248	0xbe01a3fc	-0.12660211
249	0xbe7c38ec	-0.24631089
250	0xbe024d09	-0.12724699
251	0x3df595c0	0.11991453
252	0x3e251efe	0.16125104
253	0xbdfe549a	-0.1241848
254	0xbd218f9b	-0.039443593
255	0xbc867319	-0.016412305

conv1.bias f4 [32]
0	0x3a16851e	0.0005741882
1	0x3e5d3722	0.21603063
2	0x3b2fd9bb	0.0026832658
3	0x3b338583	0.0027392812
4	0x3d41a4b8	0.04727623
5	0xbecf132b	-0.40444311
6	0xbd1045de	-0.03522288
7	0xbee1e158	-0.44117236
8	0xbd9169c9	-0.07100255
9	0x3c6d3a5a	0.014479244
10	0xbe8597dc	-0.26092422
11	0x3e3f036d	0.1865365
12	0xbe6c1445	-0.23054607
13	0x3d222ca7	0.039593365
14	0x3e2d18cf	0.16903995
15	0xbdae002f	-0.08496129
16	0x3e85833f	0.26076695
17	0xbe9ef757	-0.3104808
18	0xbeae9c82	-0.3410378
19	0xbe1e4d33	-0.15459137
20	0x3caa25a5	0.020769903
21	0xbee54596	-0.44779652
22	0x3ea6ba3f	0.3256397
23	0x3d68169e	0.056662194
24	0x3b425a11	0.0029655735
25	0x3c229403	0.009922984
26	0xbe30793c	-0.17233747
27	0x3de7a4d6	0.11310737
28	0x3d02652d	0.03183477
29	0x3b19deb4	0.0023478689
30	0x3e0937fe	0.13400266
31	0x3dbd0728	0.092298806

conv2.weight f4 [80, 32, 5, 5]
0	0xbd1ce44a	-0.03830365
1	0xbd0fc62c	-0.0351011
2	0xbcccad65	-0.024985025
3	0xbcc7c12b	-0.024384102
4	0xbd2c1497	-0.042011824
5	0xbd0e1f2d	-0.0346977
6	0xbd3f9549	-0.04677323
7	0xbd21a1a7	-0.039460804
8	0xbd069bda	-0.032863475
9	0xbd5735a2	-0.052541383
10	0xbc9fd9ab	-0.019512972
11	0xbc931747	-0.017955435
12	0xbbf8d1c2	-0.0075933645
13	0xba084b84	-0.0005199241
14	0x3b8dd9f7	0.004328962
15	0x3abb5cf0	0.0014294665
16	0xbccbd897	-0.024883552
17	0xbd4ca453	-0.0499614
18	0xbd8909c4	-0.06691316
19	0xbd08f3e5	-0.03343572
20	0x3d05daed	0.032679487
21	0x3d005fc4	0.03134133
22	0x3c712b47	0.014719791
23	0xbc6dc9a3	-0.014513406
24	0xbd17c4cc	-0.037052915
25	0xbd16ae06	-0.036787055
26	0xbcfea13d	-0.031082744
27	0xbcbb1d07	-0.02284099
28	0xbccc314b	-0.024925848
29	0xbcba8c66	-0.022772025
30	0xbc613585	-0.01374567
31	0xbc9cbb88	-0.01913239
32	0xb9452e22	-0.0001880457
33	0xbce0661f	-0.027392445
34	0xbcec9d3b	-0.028883567
35	0x3d396e3f	0.045271154
36	0x3d354266	0.044252776
37	0x3b73b200	0.0037184954
38	0xbc912f67	-0.017722799
39	0xbd2174e5	-0.03941812
40	0x3dae365d	0.08506463
41	0x3e03e1a8	0.1287905
42	0x3d8af159	0.06784315
43	0x3d6cd5cc	0.05782108
44	0x3af9583d	0.001902349
45	0xbced8600	-0.02899456
46	0xbbe3185d	-0.0069303946
47	0xbcaee4c9	-0.021349328
48	0x3ce8e9fc	0.028431885
49	0x3d2c7bac	0.04211013
50	0x3cad88b3	0.021183347
51	0xbbc5b279	-0.0060332385
52	0xbc4c7eef	-0.012481435
53	0xbcbd7783	-0.023128277
54	0xbda48847	-0.08033805
55	0x3db8c328	0.09021598
56	0x3cae8c3f	0.021307109
57	0xbca97bd2	-0.020688925
58	0xbcba2518	-0.022722766
59	0xbd515a13	-0.051111292
60	0x3e0274ff	0.12739943
61	0x3de569c6	0.11201815
62	0x3da0e3ce	0.0785595
63	0xbb699783	-0.0035643287
64	0xbd33ce32	-0.043897815
65	0x3d8add47	0.067804866
66	0x3dbe38f3	0.09288206
67	0x3e0b626f	0.13611768
68	0x3dc0a726	0.09406881
69	0x3d04288d	0.032265235
70	0xbc8e9849	-0.0174066
71	0xbccf8a62	-0.02533454
72	0x3c01f77b	0.007932539
73	0x3cdea5f4	0.027178742
74	0x3cbefd9e	0.023314293
75	0x3d1d9d1b	0.038479906
76	0x3d1e411e	0.03863632
77	0xbbea307b	-0.0071468926
78	0xbc49a80d	-0.012308133
79	0xbd7e9603	-0.06215478
80	0x3dcc11d5	0.09964339
81	0x3d6a0c22	0.057140477
82	0xbc99c089	-0.018768566
83	0xbcdc9651	-0.026927145
84	0xbd4641aa	-0.048402466
85	0x3dfc9852	0.1233374
86	0x3dccb1dd	0.09994862
87	0x3d18a7ac	0.03726928
88	0xbc16c31b	-0.00920179
89	0xbcee2f96	-0.029075425
90	0x3d09243e	0.03348183
91	0x3dccfaa3	0.10008743
92	0x3d8dae90	0.06918061
93	0x3d38e31c	0.045138463
94	0x3c0cd6d2	0.008596139
95	0xbcb4ac8d	-0.022054935
96	0x3c8b0fd1	0.016975315
97	0xbbd66b05	-0.0065435194
98	0x3c8d2754	0.017230667
99	0x3ce6a42b	0.028154453
100	0xbd56a214	-0.052400663
101	0xbcc067a5	-0.023486922
102	0xbcdd4426	-0.027010035
103	0xbcaf4e9c	-0.021399789
104	0x3af24bbe	0.0018485708
105	0xbd34306d	-0.043991495
106	0xbcea422a	-0.028596003
107	0xbd3eb2df	-0.046557304
108	0xbd56c110	-0.052430212
109	0xbadcca28	-0.0016844915
110	0xbc753642	-0.014966549
111	0x3caacabd	0.020848626
112	0x3c7080a7	0.014679111
113	0x3cc7167e	0.024302717
114	0x3cfc29ae	0.030781593
115	0xbcd57529	-0.026056843
116	0xbd6b4aea	-0.05744449
117	0xbc8a8561	-0.016909303
118	0x3d99a95a	0.07503004
119	0x3d72287e	0.059120648
120	0x3cf9b637	0.030482395
121	0xbd024d19	-0.031811807
122	0xbb2d4656	-0.0026439629
123	0xbcf953a0	-0.030435383
124	0xbc7f08d6	-0.0155660715
125	0xbc625405	-0.013813977
126	0xbcf2001c	-0.029541068
127	0xbc53f52b	-0.012936871
128	0x3d034ed9	0.032057617
129	0x3d6b4a7e	0.05744409
130	0x38a01504	7.633309e-05
131	0xbcf8a7e6	-0.030353498
132	0xbc708657	-0.014680467
133	0x3c422d91	0.011851684
134	0x3d8da438	0.06916088
135	0xbc3aa320	-0.011391431
136	0xbd3e295d	-0.046426166
137	0xbd00b9b2	-0.031427093
138	0xbc83af4d	-0.0160748
139	0x3cb51131	0.022102924
140	0xbc4dbe8a	-0.012557635
141	0xbb43bc82	-0.0029866998
142	0x3b88bd1d	0.0041729347
143	0xbcc133e0	-0.023584306
144	0xba0708b5	-0.0005151139
145	0x3b442a8c	0.0029932586
146	0xbca8762a	-0.020564158
147	0x3c87d2dc	0.016580038
148	0x3b9bfbc0	0.0047602355
149	0x3c8c7d3b	0.017149558
150	0xbd3ec70d	-0.04657655
151	0xbd47f94d	-0.048821736
152	0xbd43db19	-0.04781637
153	0xbd7ee308	-0.062228233
154	0xbd7eacfe	-0.062176697
155	0xbd4c78c3	-0.049919855
156	0xbd29cdc6	-0.041456006
157	0xbd137e4a	-0.03600911
158	0xbd592960	-0.053017974
159	0xbcd8653d	-0.026415462
160	0x3c66b9a8	0.01408235
161	0x3b802c40	0.003911525
162	0xbc1d0b9d	-0.009585288
163	0xbbd92de3	-0.0066277846
164	0xbc8552d8	-0.016274855
165	0x3c9c1dc6	0.019057166
166	0x3c913dcd	0.017729664
167	0x3cb44839	0.022007095
168	0xbd31f85b	-0.04344974
169	0xbd2156c5	-0.03938939
170	0x3d48c750	0.049018204
171	0x3d8d2c56	0.06893222
172	0x3cf00e34	0.029303648
173	0x3d58b3dd	0.052905906
174	0x3d2f9401	0.042865757
175	0x3bfdf7c9	0.0077504856
176	0xbc74116b	-0.014896731
177	0xbd426bd9	-0.047466133
178	0xbcdfee28	-0.027335241
179	0x3c38129a	0.011234904
180	0x3c3dbfd5	0.011581381
181	0xbc235c38	-0.009970717
182	0xbd6b01e6	-0.057374857
183	0xbd0e8ba6	-0.034801148
184	0xbcbf6f9a	-0.023368645
185	0x3cae8e78	0.021308169
186	0xbc1dc8ae	-0.009630365
187	0xbd6ac31a	-0.05731497
188	0xbd492725	-0.049109597
189	0xbd1af64c	-0.037832543
190	0x3d74c6db	0.059759956
191	0x3d27e0be	0.040985815
192	0xbce746fc	-0.02823209
193	0xbc5f2983	-0.013620737
194	0xbbeb9483	-0.007189335
195	0x3d747bc7	0.059688356
196	0x3d3d42fc	0.04620646
197	0xba85d2b4	-0.0010209889
198	0x3d039943	0.032128584
199	0xbbc282f0	-0.005936019
200	0xbcc71204	-0.024300583
201	0xbd34655d	-0.04404198
202	0xbcc2d256	-0.023781937
203	0xbd176ad6	-0.03696712
204	0x3c5b22fb	0.013375039
205	0xbc5e6940	-0.013574898
206	0xbd790a3b	-0.060800772
207	0xbd0e63f0	-0.034763277
208	0xbd2edae7	-0.04268923
209	0x3c8940c3	0.016754514
210	0x3b393a05	0.0028263342
211	0xbd3a6fa8	-0.04551664
212	0xbd06ec0d	-0.03293996
213	0xbd3108d6	-0.043221317
214	0x3d00864d	0.03137808
215	0x3cfd9981	0.030956985
216	0xbd13fbc6	-0.03612878
217	0xbc4170e4	-0.0118067
218	0xbd0442ea	-0.032290377
219	0x3d1e581d	0.03865825
220	0x3c145e04	0.009055618
221	0xbcf85955	-0.030316034
222	0x3c22ea50	0.00994356
223	0xbccd9f11	-0.025100263
224	0x3cb81718	0.02247195
225	0x3c80b10c	0.015709423
226	0x3c7719f4	0.015081871
227	0x3c9b987f	0.018993614
228	0x3d449a90	0.047998965
229	0x3d78573f	0.06063008
230	0x3a9fd3ed	0.0012193896
231	0x3c88c684	0.016696222
232	0x3c5fbd0e	0.013655914
233	0x3ca77067	0.02043934
234	0x3ce517c9	0.027965443
235	0xbce290d5	-0.027656952
236	0xbccfab4b	-0.025350234
237	0xbd16825a	-0.036745407
238	0xbc515aae	-0.012777967
239	0xbc11f216	-0.008907815
240	0xbcb72596	-0.02235679
241	0xbc11cf2f	-0.008899494
242	0xbcb4c2b1	-0.022065492
243	0xbc8e4b3a	-0.017369855
244	0xbc5f1b34	-0.013617326
245	0xbc65ad54	-0.014018375
246	0xbd35bc31	-0.044368926
247	0xbd345539	-0.044026587
248	0xbceff670	-0.029292315
249	0xbcecebfc	-0.02892112
250	0x3d0885fd	0.033330906
251	0x3bf3eb2a	0.007443805
252	0x3c218a80	0.009859681
253	0x3ce12941	0.027485492
254	0x3d332603	0.043737423
255	0xbbb81161	-0.005617306

conv2.bias f4 [80]
0	0xbb8ae0cb	-0.004238223
1	0xbc9aed13	-0.018911874
2	0x0029d19b	3.840448e-39
3	0x80311ef9	-4.51105e-39
4	0x008f136e	1.3139446e-38
5	0xbc1a55e2	-0.00941989
6	0x801b5ac8	-2.512125e-39
7	0x8127c72b	-3.0815952e-38
8	0x003fa167	5.843537e-39
9	0x80c4a890	-1.8060226e-38
10	0xb9db3f1c	-0.00041817955
11	0x00a835bb	1.5447638e-38
12	0xacae73a1	-4.958215e-12
13	0xa9d4e4e9	-9.454401e-14
14	0xb5acc9f7	-1.2873778e-06
15	0x80239e10	-3.270945e-39
16	0xb8cffa23	-9.917121e-05
17	0xb4222ecc	-1.510445e-07
18	0xa6719a66	-8.382292e-16
19	0x003a745d	5.368202e-39
20	0x003ee29b	5.775091e-39
21	0x00665a8c	9.399703e-39
22	0xbb23824e	-0.0024949494
23	0x00255085	3.426798e-39
24	0xb91366ce	-0.0001405731
25	0x9562fee4	-4.584141e-26
26	0x8180b952	-4.7285696e-38
27	0x9f9a0115	-6.522333e-20
28	0x80194293	-2.31977e-39
29	0xb8da667b	-0.000104141385
30	0xb6115a37	-2.1659196e-06
31	0xb1adbe2a	-5.056582e-09
32	0x8bc19468	-7.456419e-32
33	0x3bb6f6ce	0.0055836206
34	0x9ccc2973	-1.3510302e-21
35	0xb5f919a0	-1.8559404e-06
36	0xb9ca7c20	-0.00038620923
37	0xb4a84eb1	-3.1349694e-07
38	0xa7b069a2	-4.896434e-15
39	0xb708a311	-8.144199e-06
40	0x003db05c	5.665231e-39
41	0x3bfd46eb	0.0077294013
42	0x80eec2c5	-2.1926718e-38
43	0x3b5f58bb	0.0034079987
44	0x811c6c90	-2.8730565e-38
45	0x9f5fe96a	-4.7415162e-20
46	0xa4984a55	-6.6045415e-17
47	0xba092d15	-0.0005232853
48	0x0055206b	7.817647e-39
49	0xbb85e84f	-0.0040865312
50	0x3da58ae6	0.080831334
51	0xb3723f1f	-5.6402424e-08
52	0xb38f2cac	-6.667082e-08
53	0xae265e3d	-3.782773e-11
54	0xb816b33f	-3.5929723e-05
55	0xb8ac40c8	-8.2136656e-05
56	0x804c5f44	-7.013673e-39
57	0x941643f3	-7.586465e-27
58	0xa880f02c	-1.4315013e-14
59	0xb78b12df	-1.6578879e-05
60	0xb88d3c4e	-6.7346366e-05
61	0x007c86ad	1.1435914e-38
62	0xba9d0659	-0.0011980041
63	0x8041ac02	-6.031012e-39
64	0x01000db7	2.3519727e-38
65	0xb87e35b8	-6.060835e-05
66	0x9fe7ab9d	-9.8116216e-20
67	0x80df04aa	-2.0480989e-38
68	0xb15a9736	-3.1809129e-09
69	0xb982183f	-0.00024813597
70	0xbd1d5639	-0.038412306
71	0xb388ccb3	-6.370228e-08
72	0x003c29e9	5.525164e-39
73	0xb3563b9f	-4.9879983e-08
74	0xa60d7074	-4.9071604e-16
75	0x00673f22	9.481704e-39
76	0x011507ce	2.7372577e-38
77	0xb163f083	-3.3169563e-09
78	0xab9344c5	-1.0464066e-12
79	0x8061b022	-8.971228e-39

fc1.weight f4 [46, 720]
0	0xbd879751	-0.06620658
1	0xbd25ad25	-0.040448327
2	0x3c4858db	0.012228216
3	0xbc50012b	-0.012695591
4	0xbd723c2b	-0.059139412
5	0x3a55f8dd	0.00081623887
6	0xbc9f859d	-0.019472891
7	0x389f5d2a	7.599064e-05
8	0xbd538986	-0.051644824
9	0xbd14091a	-0.036141492
10	0xbec2c1f6	-0.38038605
11	0xbd0c9bcc	-0.034328267
12	0xbd943984	-0.07237533
13	0xbbe80503	-0.0070806756
14	0xbe3839b7	-0.17990766
15	0x3dca2396	0.09870069
16	0x3cec9b00	0.028882504
17	0xbe1231c4	-0.14276797
18	0x807130c0	-1.0394899e-38
19	0x805b5b30	-8.389742e-39
20	0x804b4be7	-6.914891e-39
21	0x0028c64c	3.744555e-39
22	0x00376315	5.086496e-39
23	0x00660313	9.368323e-39
24	0x00665752	9.398545e-39
25	0x00d71e7a	1.9755565e-38
26	0x00d6ca28	1.9725316e-38
27	0x801ce1c0	-2.652378e-39
28	0x801edffa	-2.835413e-39
29	0x802c3f69	-4.063509e-39
30	0x8026fd6a	-3.580657e-39
31	0x00030e84	2.80714e-40
32	0x801ef4e9	-2.842922e-39
33	0x80357c12	-4.91179e-39
34	0x000c6234	1.137255e-39
35	0x800af6be	-1.00687e-39
36	0x80038a27	-3.25066e-40
37	0x80b127cb	-1.6269158e-38
38	0x0005be82	5.27519e-40
39	0x80132cb9	-1.760918e-39
40	0x00a34821	1.4995061e-38
41	0x80101d20	-1.479816e-39
42	0x80102380	-1.482103e-39
43	0x800f1e43	-1.388388e-39
44	0x800337e9	-2.95563e-40
45	0xbda04a1f	-0.078266375
46	0xbdd79f47	-0.105284266
47	0xbd75f652	-0.060049362
48	0xbde7398b	-0.11290272
49	0xbeb3df59	-0.35131338
50	0xbf16ee3d	-0.5895727
51	0x3d964804	0.07337955
52	0x3dcfcddb	0.10146686
53	0xbe42095e	-0.18948886
54	0x801f4f08	-2.875251e-39
55	0x80310a09	-4.503539e-39
56	0x8041d819	-6.046828e-39
57	0x802508e5	-3.401104e-39
58	0x80296336	-3.800846e-39
59	0x802644a9	-3.51438e-39
60	0x80256707	-3.434873e-39
61	0x8028a717	-3.73336e-39
62	0x8026bbf7	-3.557178e-39
63	0x814002da	-3.5266876e-38
64	0x00dd909e	2.0347524e-38
65	0x80e23924	-2.077532e-38
66	0x800c27c3	-1.11629e-39
67	0x8150185c	-3.8221043e-38
68	0x0070138d	1.0292589e-38
69	0x80bdf211	-1.7443746e-38
70	0x803997f9	-5.289141e-39
71	0x8105642e	-2.4500117e-38
72	0x00526eb8	7.570229e-39
73	0x011f9500	2.931059e-38
74	0x013b7187	3.4427927e-38
75	0x00f4ed69	2.2493028e-38
76	0x0154d84c	3.9093436e-38
77	0x000e2dc5	1.302116e-39
78	0x0010e89f	1.552817e-39
79	0x803862f1	-5.178281e-39
80	0x00ed3d6d	2.1787048e-38
81	0x8051891f	-7.487865e-39
82	0x8077841f	-1.097582e-38
83	0x80247a59	-3.349968e-39
84	0x808ce661	-1.2939614e-38
85	0x806e6ab5	-1.0140184e-38
86	0x801b4acb	-2.506389e-39
87	0x80b0b276	-1.6227067e-38
88	0x80876e15	-1.2437282e-38
89	0x806e5d01	-1.0135268e-38
90	0xb970ffa4	-0.00022983417
91	0xb998f0a2	-0.00029170985
92	0xb9b1891a	-0.0003386222
93	0xba26669a	-0.0006347686
94	0xb8cfa91f	-9.9020304e-05
95	0xb89eacff	-7.56625e-05
96	0xb9814862	-0.00024658727
97	0xb8243d21	-3.9157578e-05
98	0xb826dc72	-3.978279e-05
99	0x006c7a18	9.962033e-39
100	0x0055e3f7	7.887796e-39
101	0x0053ab6b	7.68384e-39
102	0x006c01cd	9.91888e-39
103	0x0055dc13	7.884965e-39
104	0x004e4730	7.188706e-39
105	0x00703c2a	1.0307158e-38
106	0x00479456	6.573533e-39
107	0x005325bf	7.635887e-39
108	0xb7dc7e89	-2.6284966e-05
109	0xb809a253	-3.281452e-05
110	0xb7d59728	-2.5461966e-05
111	0xb8ac9e9e	-8.231144e-05
112	0xb8baa81b	-8.900483e-05
113	0xb88f80bc	-6.84275e-05
114	0xb8843b80	-6.305333e-05
115	0xb8f9c85c	-0.00011910565
116	0xb8cb00d3	-9.679948e-05
117	0xaf01b5b1	-1.1797031e-10
118	0xa8ac13ce	-1.9104425e-14
119	0xa88743da	-1.5017437e-14
120	0xad6139f2	-1.2802636e-11
121	0xac8ae1d5	-3.9472683e-12
122	0xa83ced7a	-1.0487591e-14
123	0xad7e4bfa	-1.4455099e-11
124	0xac2839f9	-2.3906417e-12
125	0xa908fdd9	-3.0418244e-14
126	0xba01aad3	-0.0004946414
127	0xb98debac	-0.00027069205
128	0xb894625b	-7.07551e-05
129	0xba5bcfeb	-0.0008385169
130	0xba1bbdff	-0.00059410924
131	0xb993c4eb	-0.0002818474
132	0xba5b91fe	-0.00083759415
133	0xba39783f	-0.0007075108
134	0xb9c651cb	-0.00037826443
135	0x00185673	2.235064e-39
136	0x802e7022	-4.264658e-39
137	0x002209ab	3.125875e-39
138	0x00136142	1.779764e-39
139	0x00158d2d	1.97919e-39
140	0x002c727c	4.081831e-39
141	0x0022ebdb	3.207016e-39
142	0x002553fd	3.428043e-39
143	0x00213b49	3.051839e-39
144	0xbbada2c9	-0.0052989465
145	0xbbb3a81d	-0.005482687
146	0xbbba3493	-0.005682537
147	0xbbb3b7a3	-0.0054845377
148	0xbbb6614e	-0.005565799
149	0xbbbc5e8d	-0.005748576
150	0xbbb65888	-0.005564753
151	0xbbb9ccec	-0.0056701805
152	0xbbb880f5	-0.0056306073
153	0x371509d4	8.88338e-06
154	0x37b2a0b7	2.1294092e-05
155	0x37e618b0	2.7429633e-05
156	0x37587ae3	1.2903215e-05
157	0x37c89313	2.3910345e-05
158	0x37ea7444	2.7949114e-05
159	0x372aad05	1.0173074e-05
160	0x3728b805	1.0056426e-05
161	0x36ae1048	5.1874995e-06
162	0x80a64e3c	-1.5272758e-38
163	0x8150a6ee	-3.8323333e-38
164	0x01dae63e	8.0410934e-38
165	0x808a9c7f	-1.2729439e-38
166	0x870aa720	-1.043108e-34
167	0x07313a10	1.3333063e-34
168	0x0185e6fa	4.918792e-38
169	0x0a880a69	1.310024e-32
170	0x0b1806a7	2.927914e-32
171	0x8058af99	-8.144516e-39
172	0x80300cd4	-4.412706e-39
173	0x000ad6be	9.9539e-40
174	0x802ce906	-4.124355e-39
175	0x80693607	-9.662108e-39
176	0x804be3c2	-6.969366e-39
177	0x805c410d	-8.472201e-39
178	0x80496d49	-6.743195e-39
179	0x8027f63f	-3.669921e-39
180	0x00401ca3	5.887745e-39
181	0x0029f500	3.853145e-39
182	0x002d0e8e	4.137819e-39
183	0x002c9f6a	4.097949e-39
184	0x002b4e4b	3.977013e-39
185	0x002bb027	4.012118e-39
186	0x0036bc7b	5.026731e-39
187	0x002a1571	3.864783e-39
188	0x0027a59b	3.640992e-39
189	0x8042eb13	-6.145471e-39
190	0x8044895a	-6.294086e-39
191	0x0019d33a	2.371661e-39
192	0x803fbe8f	-5.853996e-39
193	0x00533cf9	7.644219e-39
194	0x805538bd	-7.826371e-39
195	0x80624a08	-9.026436e-39
196	0x8032dadb	-4.670285e-39
197	0x804cfe0e	-7.070635e-39
198	0xbd1f9f9f	-0.038970586
199	0x3c33e890	0.01098074
200	0x3c57fb3c	0.013182458
201	0x3cc15119	0.02359824
202	0xbcafd613	-0.021464383
203	0xbc3f0c9b	-0.01166072
204	0x3cba3bb8	0.022733554
205	0xbcb4ed07	-0.02208568
206	0xbd6184dc	-0.055058345
207	0x80f68a0f	-2.2641058e-38
208	0x00e1ceae	2.073713e-38
209	0x00ce514b	1.8947275e-38
210	0x00e6a705	2.118208e-38
211	0x00d2ba35	1.9352253e-38
212	0x00c5ede2	1.8176929e-38
213	0x00e23eb7	2.077732e-38
214	0x00d7ec65	1.9829434e-38
215	0x00cc567a	1.8765463e-38
216	0xbb30e25a	-0.0026990385
217	0xbb30dacc	-0.0026985882
218	0xbb246a2d	-0.00250877
219	0xbb31659e	-0.0027068625
220	0xbb343a6a	-0.0027500638
221	0xbb2bbb7b	-0.0026204276
222	0xbb2e71eb	-0.0026618193
223	0xbb309542	-0.0026944433
224	0xbb28e84b	-0.0025773223
225	0xb432f589	-1.6666867e-07
226	0xb3092547	-3.19317e-08
227	0xad48997d	-1.1402765e-11
228	0xb5123e42	-5.4479835e-07
229	0xb459e3a8	-2.0292521e-07
230	0xb28546ce	-1.5515436e-08
231	0xb4dcaa88	-4.110227e-07
232	0xb48f5045	-2.669423e-07
233	0xb3bc3709	-8.764443e-08
234	0x814f96f3	-3.8128196e-38
235	0x80e79004	-2.1265663e-38
236	0x80b54708	-1.6647706e-38
237	0x81485f92	-3.6802767e-38
238	0x0096c31a	1.3845314e-38
239	0x0184dd16	4.8806385e-38
240	0x0045c9fb	6.409106e-39
241	0x80c2926c	-1.7868613e-38
242	0x813014d8	-3.234105e-38
243	0x815fda9b	-4.1115473e-38
244	0x011cb103	2.8779674e-38
245	0x01c39ade	7.185391e-38
246	0x8132350b	-3.2731493e-38
247	0x81720584	-4.4452337e-38
248	0x018ec444	5.244419e-38
249	0x8017b652	-2.17762e-39
250	0x8111eff6	-2.6804457e-38
251	0x81cffe1c	-7.640442e-38
252	0x80145ee5	-1.870752e-39
253	0x000ff1b4	1.464239e-39
254	0x8016c5e2	-2.091368e-39
255	0x0055e1b7	7.886988e-39

fc1.bias f4 [46]
0	0xbd6a21cf	-0.05716115
1	0xbc9013d4	-0.01758758
2	0xbd060a6d	-0.032724787
3	0x3b5c8cde	0.00336533
4	0x3ca30e58	0.0199043
5	0xbb4b2418	-0.0030996855
6	0xbd044098	-0.032288164
7	0xbc1708be	-0.009218393
8	0xbcbfd965	-0.023419091
9	0xbcc50310	-0.024049312
10	0xbcd0698c	-0.025440954
11	0xbcc3cabb	-0.02390038
12	0xbcd99054	-0.026558079
13	0x3c80a0c6	0.015701663
14	0xbca3c202	-0.019989971
15	0xbc130056	-0.008972248
16	0xbd001b7a	-0.031276204
17	0xbd030163	-0.031983744
18	0xbc8e5792	-0.017375741
19	0xbcd248ac	-0.025669418
20	0x3c099cff	0.008399247
21	0xbccba430	-0.024858564
22	0xbc39691c	-0.011316564
23	0xbd133693	-0.035940718
24	0x3c22afc7	0.009929604
25	0xbc7018c6	-0.014654344
26	0xbc904f4a	-0.017615933
27	0xbbb0af50	-0.0053919926
28	0xbb2bd80d	-0.0026221306
29	0xbd22c692	-0.039740153
30	0xbd018802	-0.031623848
31	0xbbc595ac	-0.006029805
32	0xbd88a749	-0.06672532
33	0x3cbeb101	0.023277761
34	0xbc5c1898	-0.013433598
35	0x3bcccdee	0.0062501347
36	0xbbaf4744	-0.0053490717
37	0x3d0b9d81	0.034085754
38	0x3c176465	0.0092402445
39	0xbcb5ad3d	-0.022177333
40	0xbd1616ec	-0.036642954
41	0xbcaf81d9	-0.02142422
42	0xbd5b29af	-0.05350655
43	0xbdce0e7a	-0.10061355
44	0xbc3322af	-0.010933562
45	0xbd08a270	-0.033358037
